Neuroinformatics_Laba3/GRU.pth (torch, 647104 bytes, 10 tensors)

gru.weight_ih_l0 f4 [384, 28]
00000000: 1632 803c 4ab3 f9bc 71f2 0c3e 4689 0cbe
00000010: d4e9 0fbd 08ca 633d 111f cd3d 549f 7e3d
00000020: 5b01 133d c3d3 263c ea90 2c3d 239d 2ebd
00000030: 144b 353d b666 5fbd 6cf6 48bd 221b 1c3d
00000040: b811 5d3d 2457 253d 19c0 353d 6de8 a93d
00000050: 10f3 923d 4b0f e13b bc9d c93c a566 2f3e
00000060: a8ab c13d aaf9 223e ec60 373e 8726 163d
00000070: 6d5b 29bb a38a d43c 932b 0f3d 9a8d 163e
00000080: 56d1 843e 7d6a db3d 0b3c 343e 5cd9 c83d
00000090: ca7e d33d 788b 2b3e c461 a83d 0311 e93d
000000a0: 8266 b53d df07 d4bd 39a7 75be 302d efbd
000000b0: 36d6 86bd b58d c0bd 4b02 87bd 5684 0fbe
000000c0: ff15 babd a464 efbd e3b3 8ebd 7be4 b5bd
000000d0: f001 d9bc e41e bdbd 8123 fd3d 712a 133e
000000e0: 6760 213c b004 963b 693c 2f3e 106b 643e
000000f0: 5985 9b3e b465 be3e 713f 2e3e 1ff1 cd3d
00000100: d417 40bd e753 d1bc b15e 5ebd c20e 06be
00000110: 80d8 e7bd 91d8 b0bd 7110 e6bd 8e25 6abc
00000120: 1868 87bd d37a 5fbd edfc 2abe 6ca2 14bd
00000130: e19d afbd 672a b63c 1e28 623d 0e93 333c
00000140: 6d77 033c eb47 3dbd 4a48 563e 546a 16bd
00000150: e8cf 743c cfe1 bc3d deb8 323d 2531 b03d
00000160: f7d1 e23d b6a0 c63d 8152 9ebb 9430 0c3e
00000170: 68ab 1d3e 0cd6 c9bc 3df7 70bd 0471 863d
00000180: 6184 043d 02a7 99bc fea7 953d 235b 073d
00000190: 6cb3 3cbc 3dfe ecbd 426f 16be b942 13be
000001a0: 2316 c0bd 861f 03be f210 5abe 688c 81bd
000001b0: 46fa 18be f6e8 3f3d 714f d53d 9092 3dbd
000001c0: 611d d0bc 1e27 d03d 56d6 813d 8e86 b7bd
000001d0: c6ea 34be 77e2 ccbd 0fbb 323d 29a7 5dbc
000001e0: 374f 91bc 88c3 eb3d 6ef6 e73b 6298 42bd
000001f0: 772c 69bd bb4c 15be 8e5a 22be 67e8 00be
00000200: cdc8 7fbd 7dd2 8a3d 96b6 913d 13a3 aa3c
00000210: 561b 6a3c c8c3 43bc 2062 07be c28b 83be
00000220: f1a7 24be 71db ed3d b5fb 8f3d 805f 093e
00000230: c60b 043d b847 a53d 30ce 1a3d 9ee4 a7bc
00000240: 613a 953d d291 063e 141c 8e3d 931e 563d
00000250: fff8 793d 36e0 6f3e 4462 633e 4c42 303e
00000260: ae95 06be 93a6 e7bd ac2c eabc 5e41 b93c
00000270: f7b1 1e3e 938e 603e d31c 4c3d 3772 283d
00000280: 0225 053e da60 d6bd 90fe 13be 3d2e c8bd
00000290: 879e 963c 3af7 483d 5a92 78bd 9987 823d
000002a0: 67c5 2bbb e91d e73d 8e3a 62bd cfa1 e3bd
000002b0: 53e0 1ebe 5e66 c0bd 703c 92bd d919 81bd
000002c0: 2907 79bd 8db4 113c d2b0 73bc 20a9 0e3e
000002d0: 3373 7f3e e758 f93d 8068 19bd f6af 0fbd
000002e0: c3f6 fd3b 8658 d0bc 1d5b 383d c0e7 00bd
000002f0: 0006 d0bd 4dd9 803d 77ee aebd 3719 3bbe
00000300: 8168 d6bd 4ec3 10bb e4e8 433d 0100 47bc
00000310: 970e 153d 9ed7 52bc 9861 ebbc 2f71 ab3d
00000320: 8cb3 553e e8c2 703e a1ed 923e 4892 a13d
00000330: ee57 4cbc 8e56 363c 9cef 823d 2907 093e
00000340: 598c 413e 17a4 b53d 0483 2fbe d88d 38be
00000350: f2c8 b7bd 0d7c 2f3d c520 733d 84c2 06bc
00000360: 2f47 23bd bc72 04be 993d ae3c cd45 3ebd
00000370: abe3 0fbe 4ca8 083e 65db f63d 12aa 463e
00000380: 8c81 203e c22d 383d fb90 5f3c 09c3 11be
00000390: 5ad7 ebbd 5e9c 72bd f33d 73bd 2978 c9bd
000003a0: 2ec5 33be d667 c2bc 90f2 30bc 166e 003d
000003b0: a081 cabc bc5c 9dbd 1131 12be 1f03 24be
000003c0: c2aa 24be c6dc 57be ead1 15be fd5f aebe
000003d0: 0de9 2bbe 47ee 38be 06c2 88be 7548 cebd
000003e0: 1b06 5fbc 5efe f3bd 752f f4bc 68c6 72bd
000003f0: fef3 d93c 01e5 4f3d 3f70 ba3d 5584 d93a
0.015648883 -0.030481 0.13764359 -0.1372424 -0.035135105 0.055612594 0.10015691 0.062163666
0.035889965 0.010182324 0.04213039 -0.042630326 0.044261053 -0.054541312 -0.04906313 0.038111813
0.053971976 0.040366307 0.04437265 0.08296285 0.07175267 0.006868278 0.024611346 0.17129
0.09456569 0.15915552 0.17908067 0.036657836 -0.0025841848 0.025945013 0.034953665 0.14702454
0.2594096 0.107136704 0.1760103 0.09807083 0.103269175 0.16752422 0.08221772 0.11380198
0.088574424 -0.10353064 -0.23989572 -0.11678541 -0.06583826 -0.094020285 -0.06592234 -0.14015326
-0.09086227 -0.116891176 -0.069679044 -0.0888147 -0.026490182 -0.092344075 0.123602875 0.14371659
0.009849644 0.0045781955 0.17112888 0.22306466 0.30375174 0.37186968 0.17016388 0.10055756
-0.046897724 -0.025552703 -0.054289524 -0.13091567 -0.11320591 -0.08635057 -0.11233605 -0.01429118
-0.06611651 -0.054560494 -0.16698046 -0.03628771 -0.08575035 0.022237016 0.05521404 0.010960354
0.008024079 -0.046211164 0.20926014 -0.036722496 0.014942147 0.09222757 0.043633334 0.086031236
0.11075204 0.09698622 -0.0048316126 0.13690406 0.15397418 -0.024638198 -0.058829535 0.06564525
0.03235281 -0.018756393 0.073074326 0.0330459 -0.011517387 -0.115719296 -0.14690879 -0.14380921
-0.09379222 -0.12804994 -0.21295527 -0.063256085 -0.14939222 0.04685303 0.10415543 -0.04628235
-0.025404634 0.10163711 0.063397095 -0.08961211 -0.17667684 -0.10004132 0.043635424 -0.013528624
-0.017737968 0.11511904 0.0070789373 -0.047508605 -0.05692717 -0.14580052 -0.15854856 -0.12588654
-0.062447358 0.06778429 0.07114904 0.020829713 0.014288744 -0.011948533 -0.13221025 -0.25692564
-0.1607969 0.11614121 0.07030431 0.13415337 0.03223779 0.0807032 0.037794292 -0.020494755
0.072865255 0.13141564 0.06938949 0.05227525 0.061028477 0.23425373 0.22205454 0.1721279
-0.13143036 -0.113110684 -0.028585754 0.022614177 0.15497576 0.21929388 0.049832176 0.04112455
0.13002399 -0.10467692 -0.14452577 -0.09774444 0.018386139 0.0490639 -0.060686447 0.063735195
-0.002621019 0.11285002 -0.055231623 -0.11114847 -0.1551526 -0.09394525 -0.07140434 -0.06303758
-0.060797844 0.008893144 -0.0148737 0.13931704 0.24946289 0.1217516 -0.037453175 -0.03507992
0.0077503636 -0.025432836 0.045008767 -0.031471014 -0.101573944 0.06291447 -0.08541577 -0.18271337
-0.10469151 -0.0022089067 0.047829524 -0.012145997 0.036390867 -0.01286879 -0.02873306 0.083711974
0.20869273 0.23511851 0.2869692 0.07889229 -0.012472136 0.011129035 0.06393358 0.13381638
0.18901195 0.08869188 -0.17139822 -0.18022859 -0.08973874 0.042842913 0.059357423 -0.008225087
-0.039862808 -0.12934393 0.021269606 -0.046453286 -0.14051692 0.1334545 0.12053565 0.19400814
0.15674418 0.044965513 0.013645406 -0.14234556 -0.115156844 -0.059231155 -0.05938525 -0.09837372
-0.17555687 -0.023731153 -0.010800019 0.031354986 -0.024720013 -0.07683703 -0.1427653 -0.16016816
-0.16080764 -0.21080312 -0.14630857 -0.34057608 -0.1678812 -0.18059646 -0.26710528 -0.10072414
-0.0136122955 -0.11913751 -0.029807786 -0.059271246 0.026605602 0.050755505 0.091034405 0.0016595224

gru.weight_hh_l0 f4 [384, 128]
00000000: 10a9 883d 22f9 fe3c e122 2bbe 4bb6 98bd
00000010: 01b1 373e 5ea9 d53d bddb 1c3d ee88 59bd
00000020: a468 01bd dbc8 b0bd 845a 1d3e 4c20 963d
00000030: 1c2c 15be 84e9 cfba 224f 913d 846c 3bbc
00000040: 26c7 db3d 339a 07be 9ceb 183d 64d4 d2bd
00000050: 6c21 063e 140d 373e 5561 8d3d e823 d5bd
00000060: f992 edbc ec97 623d 25b1 19be 0d00 003c
00000070: 83ed 3d3d b5b5 a83d 4824 023b f740 cf3c
00000080: 0b24 933d df45 1d3e 847d 40bd 8d3d f63d
00000090: 836f 4dbe a114 0dbd 7435 40bd af90 13bd
000000a0: 91d4 543e 1f55 59bd a135 123e f919 c43b
000000b0: b90d 24be 873e 3e3d 31e2 83bd 3079 6fbe
000000c0: f84e 473d 22f4 813d 9492 56be b859 e4bc
000000d0: 96a7 b43d 4942 953a 8022 a3bd 12a4 053e
000000e0: 011b b0bd 0149 68bd b1d8 dbbd 79cb 103e
000000f0: 55bf 933d c02c eb3b dd03 943d b017 2fbd
00000100: 24fc 513d 4582 6d3e bbc8 b83d b8c7 ac3d
00000110: 770a 4abe a29a 393e c6b6 bd3d 1f9d 21bd
00000120: 066c 183e 75d0 713d 7d9b 923d 9e9f bb3b
00000130: 1d52 343e cb89 48be 05a1 26be 5315 183e
00000140: d192 b03d 09dc 2fbd d923 f3bc 0e45 d73b
00000150: 1dc3 01be 52ca 30bd c0fe fcbd 383b c73d
00000160: 70d4 d93c b174 1e3e b59b 34be 88fa 433e
00000170: 8224 e73c d3a9 eebd 76f0 20be d9a3 d4bd
00000180: 6b96 8cbd 924e 313e 8cf3 6a3e 3b72 f63d
00000190: 16b2 e23d 1ebd 223d 33db 65be af19 73be
000001a0: 1b62 523d 766a 363e d84a dd3d b4af 2f3d
000001b0: 0922 30bc e0da 733d c398 32be 36ea 393e
000001c0: acfa ac3a 67be bdbc 6b4d 2c3d 8867 ca3d
000001d0: d20f 15be df95 adbc 382e 2fbd 10b9 993d
000001e0: 8ad5 6cbd 5665 fe3d 6f35 06be ee0c 6c3c
000001f0: 60f4 923d a338 f73d 3a68 083e 5276 de3c
00000200: 18fb 79bd 73dc 35bc 96c4 48bd ef0a a13d
00000210: 9fcb 013e 102b 90bd fd6c 823d 41f8 d2bc
00000220: b783 853d b326 e83d d4ca a6bc 1851 8abd
00000230: 637d b13d 29d2 d93c ed48 d83d d1a4 9a3d
00000240: 98cf 70bd 01dd 9bbd d962 0a3e f620 e83d
00000250: 2719 dc3c 1334 c5bc 6951 a6bd df73 5b3d
00000260: cb7c a23d d887 6cbd 2652 f6bd 47b0 ef3c
00000270: 7e54 ed3c 9622 ca3c cfcf 6fbd b6d6 ab3c
00000280: 8822 103c 8e1b a53a c917 2ebd 5374 9d3d
00000290: a6e5 4e3d ce78 a73c 19e6 083c ebc7 b23d
000002a0: e9fe 0ebe 69d5 d4bd 6a6b 363d 279a 1b3c
000002b0: ce54 c13d c4e7 bebd 3c34 f4bd 0e39 4abc
000002c0: 1b42 6ebd 06e3 533d 8517 f5bd a0a7 943d
000002d0: 4244 2a3b 789d 9abc 2cec 87bd 2910 c83d
000002e0: 52c7 b4bd 70d4 a13d 3d0c a43d 6359 433e
000002f0: c757 ba3c 1678 c43d 86bd 7dbd e292 22bd
00000300: 4901 6fbd 8fc1 6ebd 9bf2 893c 48e5 b83c
00000310: 33c2 16bc 8227 d53d 93d1 1c3e 886b a6bd
00000320: 86b7 343b 9805 41bd fe25 58bd 73f0 d5bd
00000330: e47a 61bc 0a9a 143d 32c8 21be 513e b4bc
00000340: fc30 3bbd 0729 f1bd 57ea cb3d 7ebe c93d
00000350: b128 e2bd b51f c03d 5acd b83d 73ce 423b
00000360: afd9 58bd fcf5 df3d 0509 6cbd 7ba8 1dbd
00000370: e95b 133d 9799 80bc e062 083e 4875 2bbe
00000380: 763e 74bc c1a8 7ebd 9c6c 0f3d 57a9 cd3d
00000390: f0fb 34bd b032 d2bd 324a 76bd 60f4 1f3e
000003a0: 893e 96bd 33aa 073e b035 073e 6f02 61bb
000003b0: 6402 28bd c482 493d 731f fe3a 1f42 493e
000003c0: 990c 2b3d 1a07 a2bd 04c9 0c3c bef0 30bd
000003d0: e79f 74bc cc5c 173d fa74 dbbd 6a36 e43d
000003e0: 785e 8d3c c06e 7a3d 519d 6cbd 1813 dd3d
000003f0: 6df2 bf3c 4b87 eabd eb38 3ebd 7e1d 583c
0.06672871 0.031124655 -0.16712524 -0.074566446 0.17938615 0.10432695 0.038295496 -0.053109102
-0.031593934 -0.0863206 0.1536656 0.07330379 -0.14567608 -0.001586244 0.070951715 -0.011439446
0.10731344 -0.13242416 0.03733407 -0.102944165 0.13098687 0.17876083 0.0690333 -0.10407239
-0.029000746 0.055320665 -0.15008982 0.007812512 0.046369087 0.08237783 0.001985805 0.025299532
0.07184609 0.15358685 -0.0469947 0.12023459 -0.2006207 -0.0344435 -0.046925977 -0.036026653
0.20784213 -0.053059693 0.1427827 0.0059845415 -0.1602086 0.04644635 -0.06439627 -0.23386073
0.048659295 0.06345393 -0.20954353 -0.027874812 0.08821027 0.0011387552 -0.07965565 0.13050869
-0.085989006 -0.056710247 -0.1073469 0.14140119 0.07214228 0.0071769655 0.07227299 -0.0427472
0.05126585 0.23194225 0.09022661 0.08436531 -0.19730555 0.18125394 0.09263377 -0.039456483
0.14884958 0.05903669 0.07158563 0.005725815 0.17609449 -0.19583814 -0.16272362 0.14851885
0.08621753 -0.04293445 -0.02968018 0.0065695113 -0.12672086 -0.043161698 -0.12353277 0.09728092
0.026590556 0.15474202 -0.17637523 0.19138539 0.02821565 -0.11653485 -0.15716729 -0.10382814
-0.068646275 0.17315128 0.22944468 0.120335065 0.110691234 0.039731137 -0.22446899 -0.23740266
0.051363092 0.17814049 0.10805291 0.042892173 -0.010750302 0.059534907 -0.17441086 0.1815575
0.0013197265 -0.02316208 0.04206602 0.09883028 -0.14556816 -0.021189628 -0.042768687 0.07506001
-0.057820834 0.12421672 -0.13106321 0.01440738 0.07175517 0.120713495 0.1332101 0.027156029
-0.061030477 -0.0110999225 -0.049015604 0.078634135 0.12675332 -0.070394635 0.06368444 -0.025753142
0.06519263 0.11335506 -0.020360388 -0.06753749 0.08666494 0.02658947 0.105607845 0.075509675
-0.058791727 -0.076105125 0.1351427 0.11334412 0.026867462 -0.024072682 -0.081209965 0.0535773
0.079339586 -0.05774674 -0.12027387 0.02925886 0.028970953 0.024674695 -0.05854779 0.020976406
0.008797295 0.0012596713 -0.042503152 0.07688203 0.05051198 0.020443346 0.008355641 0.087295376
-0.13964428 -0.10392267 0.04453603 0.009497202 0.09440003 -0.093215495 -0.119240254 -0.012342704
-0.05816851 0.05173018 -0.119673766 0.072585344 0.0025980626 -0.018873915 -0.06636843 0.09768707
-0.0882708 0.07901847 0.08010147 0.19077067 0.022746934 0.09593217 -0.06194832 -0.03969086
-0.058350835 -0.05829006 0.016839316 0.022570267 -0.009201574 0.10407926 0.15314321 -0.08125979
0.0027575209 -0.047124475 -0.052770607 -0.10446253 -0.01376221 0.036279716 -0.15799025 -0.022002371
-0.045701012 -0.117754035 0.09956806 0.098507866 -0.110429175 0.09381048 0.09023543 0.0029725104
-0.052941974 0.1093559 -0.05762579 -0.038490754 0.035976324 -0.015698237 0.13318968 -0.16743958
-0.01490747 -0.062172655 0.035015687 0.10042065 -0.04418558 -0.10263574 -0.060129352 0.15620565
-0.073361464 0.1324852 0.13204074 -0.0034333726 -0.041017905 0.049196973 0.0019388035 0.1965413
0.04176006 -0.07911511 0.008592848 -0.04319834 -0.014930702 0.036953732 -0.10715671 0.11143191
0.01725696 0.061140776 -0.057767216 0.107946575 0.023431027 -0.11451586 -0.046441 0.013190625

gru.bias_ih_l0 f4 [384]
00000000: d002 80bd 1ce5 25bc d0b0 abbd 8f3d debd
00000010: 9b7b a9bb 0425 113d 87dd 9fbc fc78 44bd
00000020: 7cac 35be 30d0 18bd ef1b 8cbd 0267 dfbd
00000030: 028e 163e 38c6 11be 7501 24bc 781d 20be
00000040: 23b7 a43c b419 5b3d cd33 4b3d 68b2 50bd
00000050: b987 a13d 54e4 50ba d1d3 83bc 9ff3 3a3d
00000060: 9d19 01bc abc4 28be d64e 6b3d cfb5 e7bd
00000070: 4048 423b 3ab7 01bd 246d 30bb 124e 29bd
00000080: 9123 903c fe11 343d 03b4 94bd ff81 98bd
00000090: 77c3 b4bd e8ea f83c f1fe 013e f237 933c
000000a0: a09e 8ebd 4efd 363d 84c9 a0bd a845 d03d
000000b0: 45f1 b7bd 5195 48bd 59bf 8b3d a3b3 0fbd
000000c0: b0e6 70bd 2e04 08bc b88f c5bb b048 53bd
000000d0: 287e 983d 6f41 b3ba f36a 2abb 77cd 11bd
000000e0: 762b d83c 1bdd de3c b8f1 fa3c b0bc 1b3d
000000f0: da8e 33bd ea15 aa3d 4b9a 5cbd 52aa 263c
00000100: b324 d4bc 41b3 69bd 68fc 003e a3b6 1d3e
00000110: 575a 01bc e957 5c3d dcb7 0cba ab9f 0bbe
00000120: 639b 4abc 8138 83bb c48c 70bb f07a 473b
00000130: 3227 943c d51f 7fbc aa9e 183c 6646 543b
00000140: 8752 743c e4d3 52bd b85b c33c 4dcd ab3d
00000150: 7a9a 473d b83b 8dbc d71b c8bc 1897 093c
00000160: cac3 12bd c51f 64bd 3c8e 5ebc d109 88bc
00000170: 01e4 523c 7d94 abbd 132f fd3d 12a5 01be
00000180: 0765 693c bc47 86bd 094d bc3d 19e6 343d
00000190: b6d3 68bd 33d4 4abd 2665 ab3c d82c c23c
000001a0: 2afe 843d 22fa 09be 97c9 d0bc 0644 99bc
000001b0: 0784 9f3d fc1f b8bc ec4b 413c b667 8ebc
000001c0: 1f54 e1bd 7753 5fbb d61f 023d e092 92bd
000001d0: 4625 903d 1174 9dbd 7047 ec3d f094 a2bc
000001e0: 5b91 0bbd aefc d8bd fde0 2a3d b7be aebd
000001f0: e411 e8bd 1ae4 02bd faa8 a73c 8be4 ce3b
00000200: 7447 e2bc 4cf6 1c3d 69c4 053e c414 e93d
00000210: 272b ab3c f985 c83d 0292 d03d e15e cd3d
00000220: fae6 a4bb 3c47 88bd 5f0d 52bc 9fc5 ca3d
00000230: 87df 12be 8ada e23d dfb7 103d 9f8b ef3d
00000240: a94e bcbc e85b d93d 039f af3d e5df 97bd
00000250: f4c5 d1bd c0fb 353d 298f f6bd 2f89 76bc
00000260: 9aec 053d 7f75 ce3d b2c1 b23d fe53 d33d
00000270: 28ee 2f3d 3d23 553d 91f7 023c 93ed b2bd
00000280: 0a54 c53d cfc0 a13d dd52 3f3d fd10 c93b
00000290: 6dfb b13b e46c c53d d609 1cbe bee4 a5bd
000002a0: 4f81 c8bd c144 36bd c522 003e db5c 033e
000002b0: 6495 1d3d d25e ce3d 9b26 ac3d c4b1 5abc
000002c0: 9d65 26be 1cc0 bebd 486f 30bd 7f56 bdba
000002d0: 26fe ecbd d0ab 9c3d 3a2b 32bb 3699 8e3d
000002e0: 88f0 ab3d 1912 ae3d c6f5 babc 5599 2e3d
000002f0: 9c9f d83d bdbe 78bc f813 63bc b600 903e
00000300: 46dd c1bb adbe b7bc bcdc 89bd 55a2 e3bc
00000310: 8056 953d 3f21 eb3d 7520 91bd fb48 3d3e
00000320: 52c1 08be 74bd 2bbd 769d ac3d ad28 223e
00000330: fd51 033e 88c4 953d 7da0 1cbe ae19 923c
00000340: 22b4 a23d 3cc5 cd3d 8b16 8b3d f711 c13d
00000350: 0fff 353e 5c5a 03be 3a08 c9bd 0ad9 8e3c
00000360: 8e1d ffbc fb64 2cbd 676c c73d 243e 0f3e
00000370: f129 de3b 41de 1c3e 81ae 2ebe 2009 073e
00000380: a3d3 3e3e 70ef c03a b237 0ebe 2abd 25be
00000390: 7994 01be 9a61 a53c 6d93 2f3e 6fff 133c
000003a0: 7f98 a4bd b8ed 1a3d ea4f d83d eef7 e33b
000003b0: 3dfb 773d 1e9c f43b ec91 d43d 5366 ea3d
000003c0: 71c9 eebd aab9 bfbc bb20 80bc 00bf 1bbe
000003d0: 9719 323d 82db 4e3d 85c2 96bd 3691 0cbe
000003e0: c3fc 9e3d fed8 d2bd 8f8c 2e3e 93ef 0c3e
000003f0: eefd 0b3e d20d 07bd 446b 273c 0eb4 d2bd
-0.062505364 -0.010125425 -0.08383334 -0.10851585 -0.0051722056 0.03543569 -0.019514812 -0.047966942
-0.17741579 -0.037307918 -0.068412654 -0.10908319 0.14702609 -0.1423577 -0.010010113 -0.15636241
0.020106858 0.05349131 0.049609948 -0.05095139 0.07887215 -0.0007968594 -0.016092213 0.04564249
-0.007879642 -0.16481273 0.05744823 -0.11313974 0.0029645115 -0.03166888 -0.0026920522 -0.04133422
0.017595084 0.04396247 -0.07260897 -0.0744667 -0.088263445 0.03038545 0.12694909 0.017971013
-0.06963849 0.044675164 -0.07850936 0.10169536 -0.089815654 -0.048970524 0.06823606 -0.035083424
-0.05881375 -0.008301778 -0.0060290955 -0.051582992 0.074459374 -0.0013676117 -0.0026003688 -0.035596337
0.026387911 0.02720504 0.030632839 0.038021743 -0.043837406 0.08304961 -0.053858083 0.010172443
-0.025896406 -0.057055715 0.12596285 0.15401702 -0.007895074 0.053794775 -0.00053679734 -0.13635127
-0.012366149 -0.0040045385 -0.0036704997 0.0030438267 0.018085096 -0.015571554 0.009315172 0.0032390594
0.014912254 -0.051471606 0.023847446 0.083887674 0.048731305 -0.01724039 -0.024427338 0.00839784
-0.03583125 -0.05569436 -0.013583716 -0.016606243 0.012871743 -0.08377931 0.12362494 -0.12660626
0.014245278 -0.06556651 0.09194381 0.04416475 -0.05684253 -0.049518775 0.020922255 0.023703024
0.064937904 -0.13474324 -0.02548675 -0.018709194 0.07788854 -0.022476189 0.011797886 -0.017383438
-0.11002373 -0.0034076849 0.031768642 -0.071569204 0.07038359 -0.076881535 0.11537063 -0.01984641
-0.03407417 -0.1059507 0.04171847 -0.0853247 -0.11331537 -0.031955816 0.020466316 0.0063138655
-0.027621962 0.038320825 0.13063206 0.11380914 0.0208946 0.09791178 0.10184099 0.10027862
-0.0050324174 -0.06654212 -0.012820571 0.099009745 -0.14343081 0.11076839 0.035331603 0.116965525
-0.022986727 0.10613233 0.08575251 -0.07415751 -0.10242835 0.04442954 -0.120390244 -0.015047356
0.032696344 0.10081004 0.08728351 0.103187546 0.042951733 0.05203556 0.007993595 -0.0873672
0.0963517 0.078981034 0.046709884 0.0061360584 0.0054315836 0.0963991 -0.15238127 -0.0810027
-0.09790289 -0.044499163 0.12513264 0.1282839 0.038472548 0.10076679 0.08405801 -0.013348047
-0.162497 -0.09313986 -0.043074876 -0.0014445334 -0.115719125 0.07649958 -0.002718641 0.069628164
0.08395487 0.084995456 -0.022822272 0.042626698 0.10577318 -0.015182194 -0.013859741 0.28125542
-0.0059162704 -0.022429788 -0.06731555 -0.027787367 0.07291889 0.114809506 -0.07086269 0.18484871
-0.13354996 -0.041928723 0.08428471 0.15835829 0.12824245 0.07312876 -0.15295596 0.01783451
0.07944514 0.10047385 0.06791409 0.09427255 0.17773078 -0.12827438 -0.09816022 0.017437477
-0.031142022 -0.04208849 0.09737473 0.13988549 0.006779902 0.15319158 -0.17058755 0.13187075
0.1863542 0.0014719795 -0.13888434 -0.16185442 -0.12654294 0.020188142 0.17146082 0.009033068
-0.08036899 0.037824363 0.105621174 0.0069570458 0.060542334 0.0074648997 0.10379395 0.11445298
-0.11659516 -0.023403961 -0.015640607 -0.1520958 0.043481436 0.050502308 -0.073613204 -0.13727269
0.07763054 -0.10295294 0.17045806 0.13763265 0.13671085 -0.032972164 0.010218445 -0.10288249

gru.bias_hh_l0 f4 [384]
00000000: 23da cdbd 65ff ed3c 788f cabd 3f78 a0bd
00000010: 2a47 e4bd 5a40 933c 35ea d3bb 226a a8bd
00000020: f3ca b8bd 2921 243d 5945 02be b15f 40bc
00000030: fb02 b73d 2ace b93b dbbc 633d 4540 e7bc
00000040: 6a8e 6bbb 1d2a 86bd 0f2f 45bd 7607 f6bd
00000050: 2b21 953d 4c33 053d 1328 9dbd e22b 943d
00000060: 9b0c 793d bb12 9dbd 47b9 893c 8b8e 1abe
00000070: 0a73 a6bd 46d6 503d b507 4cbd 4fed 123c
00000080: cfbe b7bd d324 5cbd ad97 babd ab83 29bc
00000090: 159b a2bd a83d 50bd 4108 d73d 79d4 97bd
000000a0: eeeb 013b b0c1 e3bb a2f7 adbd 0c5d 6c3a
000000b0: fb76 31be 4e35 96bd 7b56 773d 5b8f c1bd
000000c0: 8aa4 c9bd c0e1 483d 46e2 c4bd 96ab e4bc
000000d0: 5d16 07bd 090c a3bd 2a9d 7bbd d4df cfbd
000000e0: 9106 aebd aa3c 4f3d 8e9a 8cbd 898b 17bd
000000f0: 365a e3bd 3870 cc3d 5020 643c 3b9c b23c
00000100: d01f a83c 8b98 c3bd c0bf e63d 195a 8e3d
00000110: c995 4bbd 7947 7ebd 7f4e 2a3d 53d4 afbd
00000120: 57b2 c2bc a318 00be 92e5 45bc 33d2 f5bd
00000130: 4bd7 edbc da9d b53c f09b 3d3b 9ffe 6c3d
00000140: bb19 393b 2b53 ccbd f2b0 253d 20be 2dbd
00000150: a890 64bb 54d7 debd ef8a c1bd e2f1 3f3d
00000160: 2747 f8bc 3cea c03c 6e1e dbbd be77 83bc
00000170: d9db d43c 4daa f3bc a3e2 2cbc 80e0 f6bd
00000180: 7b8b 51bd 6156 18bd 0d15 0d3d 2c75 883d
00000190: 574c 303d 8d9c 723d 1623 383d 3c7a e4bc
000001a0: cc9b 96bc fa41 10be 2ab8 e2bd 0bf4 fa3b
000001b0: 19fa a5bd ef2f e2bc ccba 57bc 09dc 43bc
000001c0: a9ef 99bd b796 00be e26a 28bd 8f63 4c3d
000001d0: 1a7b 5e3b 0f0b 5cbc 568d 4c3e 2d2b c13d
000001e0: 99f1 dcbc 05e8 97bc e936 a83c 3cc3 1fbe
000001f0: 581a a33c 6b5c 07bd a529 0abd f713 c83c
00000200: 051e 3c3a 683a f13c 26f1 9c3d 1bda c03d
00000210: 7b7d 593d 6162 ad3d 332b 003d 0094 f93c
00000220: 6293 9ebd c2aa f03c 8db8 84bc a75b 243d
00000230: bad1 0dbe c603 45bd bc42 803d 8c13 833d
00000240: 9ec1 5a3b bce9 f73d 24fd 423d 4cdd 46bd
00000250: c699 61bb 4afa 3fbc bc2e 2ebe e47e 07bc
00000260: a9a2 a63d d006 a93d 95c3 553d d01e f83d
00000270: 20c4 443d 8225 b23c a30d a33d 5455 d13c
00000280: 7667 e7bc 9e0e 2d3d 4420 b4bb 0aaa 28bc
00000290: fda7 c53d 654b 003e 4234 8bbd 455b 38bd
000002a0: f899 94bd d6f4 85bd 5ada 1f3e bdec e53d
000002b0: 656c 17bd 0334 a93d 6e52 8c3d 179f e33c
000002c0: 85b0 21be 0ce5 67bd d439 f8bc d6d2 e7bb
000002d0: 4dae 0fbe 4ce3 2e3e b3c1 fc3d f15f 893b
000002e0: 5368 07bc 3756 d2bc 4f8b 03be e93b 1a3e
000002f0: c937 253e e354 8abd 4038 d03c d9bc 663e
00000300: 9c2c 18bc d306 b63d 8126 f2bd 15f1 013d
00000310: 42cd 973d 6884 463e e4d6 06bd 1a39 bd3d
00000320: 0465 cabd 2a58 ebbc 4e4e 6e3c f79d c13d
00000330: bc34 db3d 43fa 713d 43c5 32be 9233 fc3d
00000340: 88f1 933d 2742 963b 604b 5d3d 16b9 0f3e
00000350: ecab db3d 636c 41bd 7bdd 573c c2d0 193c
00000360: dc38 7bbb ad21 f33d d923 233e bbfd 973c
00000370: b983 b83d c66b 5f3e 19b1 1ebe ed39 023c
00000380: 13d2 083e 3775 98bc 7105 22be 1b4b 18be
00000390: 4ff9 4dbb c324 9abd 64d6 5e3e 8897 f2bd
000003a0: 6928 e4bd 97b6 6abc 5290 833c 57e2 10bc
000003b0: 8236 733c d882 b8bc 6a41 cabc 936f 5e3d
000003c0: 43c9 d6bd c2e8 c6bc 00dd 49bd d1ee 0abe
000003d0: 62cd 56bd d40a 9d3d 32da 6fbd 847b 13be
000003e0: 5591 14bc 1b0e 94bd e0ab 1c3d 7e26 8f3d
000003f0: f68b 163e 5fc8 26bd 7a07 dd3d 449f 933b
-0.10051372 0.029052446 -0.09890646 -0.07835435 -0.11146386 0.017975021 -0.0064671286 -0.08223368
-0.090230845 0.040070686 -0.12721767 -0.011741565 0.08936115 0.0056703286 0.05560003 -0.028228888
-0.003594304 -0.06551001 -0.04814058 -0.12013142 0.07281717 0.032519624 -0.07673659 0.072349325
0.060803037 -0.07669588 0.01681198 -0.15093438 -0.08127411 0.050985597 -0.049812037 0.008967712
-0.08971941 -0.053746056 -0.09110961 -0.0103463335 -0.07939736 -0.05084005 0.10499621 -0.07413573
0.0019824463 -0.0069505796 -0.08494498 0.00090165506 -0.17330544 -0.07334386 0.06038521 -0.09451171
-0.098458365 0.049043417 -0.09613471 -0.02791385 -0.03298031 -0.0796128 -0.06142918 -0.10150114
-0.08497346 0.050594963 -0.068654165 -0.036998305 -0.11101191 0.099823415 0.0139237195 0.021803012
0.020522982 -0.0955058 0.11267042 0.069507785 -0.049703393 -0.06207988 0.041578766 -0.085854195
-0.02376668 -0.12509398 -0.01207866 -0.12002983 -0.029033324 0.022169996 0.0028932057 0.057860013
0.0028244096 -0.099768005 0.04045195 -0.042417645 -0.003487626 -0.10880914 -0.094503276 0.046861537
-0.030307366 0.023549192 -0.106991634 -0.016048308 0.025983738 -0.029744292 -0.010552081 -0.12054539
-0.05115841 -0.037191752 0.034443904 0.06662974 0.043041553 0.05923133 0.044955336 -0.027890317
-0.018384837 -0.14087668 -0.11070283 0.0076584867 -0.08104343 -0.027610747 -0.013167094 -0.011954316
-0.07516415 -0.12557493 -0.041117556 0.049899634 0.0033947886 -0.013430371 0.1997579 0.09432063
-0.026970671 -0.018543253 0.020533996 -0.1560182 0.019910023 -0.03304712 -0.03373112 0.024423582
0.0007176104 0.029446796 0.07663183 0.094166 0.053098183 0.0846603 0.031291198 0.03046608
-0.07742955 0.029378299 -0.016201282 0.04012647 -0.13849536 -0.0480993 0.062627286 0.06400213
0.0033379565 0.12105128 0.047604695 -0.04855089 -0.0034423932 -0.011717388 -0.17010015 -0.008269999
0.08136494 0.082532525 0.052188475 0.12115252 0.048038602 0.0217464 0.079615854 0.025553383
-0.028247576 0.04225027 -0.0054970104 -0.010294447 0.09651182 0.1252876 -0.06797077 -0.045008916
-0.0725593 -0.065408394 0.15610638 0.11226795 -0.036968607 0.082618736 0.0685166 0.02778582
-0.15789993 -0.05661492 -0.030301012 -0.007074694 -0.14031334 0.17078894 0.12341633 0.0041923453
-0.008264619 -0.025675876 -0.12846111 0.15061916 0.16134562 -0.06754472 0.025417447 0.22532977
-0.009287979 0.0888802 -0.1182375 0.031724054 0.07412197 0.19386446 -0.03291978 0.09239407
-0.098825485 -0.028728563 0.0145450365 0.094539575 0.10703418 0.05907656 -0.17458062 0.12314524
0.07223803 0.0045855227 0.05402696 0.14035448 0.10726151 -0.047222506 0.013175364 0.009388151
-0.0038333451 0.118716575 0.15931644 0.018553605 0.09009499 0.21818456 -0.15497245 0.007948381
0.13361387 -0.01861058 -0.15822388 -0.148724 -0.0031429117 -0.07526543 0.21761471 -0.118453085
-0.1114052 -0.014325759 0.016060028 -0.008843026 0.014844539 -0.022523329 -0.024689395 0.054305624
-0.104876064 -0.02428091 -0.049283028 -0.13567664 -0.052441962 0.07668081 -0.058557697 -0.14402586
-0.009067853 -0.07229253 0.03824985 0.06989764 0.14701828 -0.040718433 0.10792442 0.00450507

gru.weight_ih_l1 f4 [384, 128]
00000000: dfc2 d43d e306 283d c68e 94be dff2 143d
00000010: 6d77 e53d 7a90 ed3c 9adf 52bc 014b 1bbe
00000020: 64e5 473e e228 20be e7c6 8f3e ae10 bf3c
00000030: 996b 9dbc 6184 0fbe 07d3 abbc 349a fd3c
00000040: 2f9a 86bd 4469 00be 6123 183d 633d f03d
00000050: 7a5a e73d 1b7e b1ba 47f0 453c d6f7 b53d
00000060: 586f ba3c f971 dabd 2845 00bd 5b54 0abd
00000070: 9a3f 163d 1d50 83bd e7b8 8c3c 8681 b93a
00000080: e190 033d bbc0 fa3b 62ab 36be 1fbe 1d3e
00000090: 44b1 b6bd 8da4 b9bd dce5 b7bd b4e3 4cbc
000000a0: 931e 863d 1baf 6c3d 1c01 ef3d f049 8f3c
000000b0: 6b77 b7bd e96c 183d f281 28bd 2c9d 24be
000000c0: 218c 38bd 18b6 86bd 596f f5bd 64b7 1a3d
000000d0: 3cd4 91bd 81f1 25bc 583f a9bd 95bf 9a3c
000000e0: 56cf 25be 8ed7 9a3c 712b b73d 09ae 0e3e
000000f0: aa3d 863e f71e a33c 93af 673d 1b11 92bd
00000100: 1dde b3bc aa90 c23d 3ac8 4a3e 91f6 a1bc
00000110: 2f6f 24be c937 9abd 40e7 803e 1048 93bc
00000120: f63d e43d b6f0 eebd 46f5 88bd 00be cfbc
00000130: 11a0 863d 8e51 b8bc 31b9 9a3d f4c3 d03c
00000140: 3650 d83d 5133 2fbe 1025 28be f777 04bd
00000150: 5b2e 0dbe 5dbf c53d 635c 563e f9ac 54bd
00000160: 9884 b03d 0e86 703e 701c a4bd 7224 7d3e
00000170: 6df8 2f3d b95a 92bd de4f e5bd eb7e d2bd
00000180: 0d72 4cbd d399 1b3d 1b50 9bbd 0638 2c3c
00000190: f1c4 99bd a941 81bc edd2 bcbc 366e 46be
000001a0: 00c4 ea3d c735 963d 1a69 c03d a9b3 c53d
000001b0: fcb2 39be 9701 a13b 09a4 abbd 3a2f 23bd
000001c0: 3a13 863d 286e adbd 56a0 9d3e 8395 623e
000001d0: becc 60be 8354 66bd 555c 75bd bb7b 9d3b
000001e0: bc41 ddbd c973 01bd ba00 e43c 674c f03d
000001f0: 7405 1f3c 35c8 1b3e 7714 31bc 530a dfbd
00000200: c9a5 02bd 68b3 243e efe5 03be 320b 293e
00000210: f220 e3bd 9758 5fbc d5e9 043e 084c 23be
00000220: 4e80 1f3e c5e4 8b3d 977c 3cbd fecb 013e
00000230: 361e 553d 2573 17be 0107 0abe eb72 bf3d
00000240: 5838 70bd fd97 cfbd 8416 45bb 87f3 8b3d
00000250: 579d 11be 776e f1bd 303d 67bd c094 c138
00000260: bc5c 4b3d 797b 243d 201a 4ebd f24e df3d
00000270: ad96 c53c cb9c cfbd 7248 033c 3bc4 8fbc
00000280: 27c7 c4bd d0f0 dbbd e70e 18be a953 37bd
00000290: bdb8 e63d 4cf8 0ebd 22c2 55bc 8ec0 c33d
000002a0: 74ba 163b cd2c cf3d ebea ee3c f2cf c03c
000002b0: b90a 8a3d b69d e53d 2415 26be 058c 3abc
000002c0: 995c f9bc e980 08be 6321 09be 9285 0f3e
000002d0: b398 753d 620f a3bb f315 40bd f9ca 3dbe
000002e0: 9015 9bbe 0789 403e 81a7 7b3e caeb 00be
000002f0: 654b e43d 06ab d63d ecb5 00bd 18e7 49bd
00000300: 35ba 4b3d 544e 0dbe 5f2e 073d ed73 93bd
00000310: 848d 2c3e c5d1 88bd f05f 80bd ce48 e03c
00000320: 5379 febc b530 01be 29d2 08be a46b 6cbd
00000330: 6968 0c3d aae9 23bd a665 95bd 1c94 af3d
00000340: 8d19 cb3d d738 72be a86e 3fbe 4fa0 b53d
00000350: 1e1b d6bd f993 883e b8f9 153e 5c34 e73d
00000360: b85e 823c 6407 febb dcdf 583d f797 393e
00000370: 643d 18bd 2078 1bbe bace 33bd daf1 033d
00000380: c706 5cbc 3ea3 8f3d 5803 d5bd 280e bc3d
00000390: 1630 91bd cee7 61bd c713 8a3e 41f2 833e
000003a0: f645 923d 2d20 573d c082 debb e320 debc
000003b0: ce05 5f3c b1fb 863d 0bf3 603e 3747 453d
000003c0: 67b0 c43d c4f1 10bc 9da0 d43d 7898 2b3e
000003d0: 9c18 363e bdb2 3c3b 12ef 39be 1972 933d
000003e0: 4cfb 0e3e 174d cbbd b6e9 323e b133 8fbc
000003f0: 58d4 b23d 4d14 913c f006 29be 8751 59be
0.10388731 0.041022193 -0.29015177 0.036364432 0.11204419 0.028999556 -0.012870694 -0.1516533
0.195211 -0.15640596 0.28081438 0.023323383 -0.019216346 -0.14015342 -0.02097465 0.030957319
-0.06572377 -0.12540156 0.037143115 0.117304586 0.11296554 -0.0013541611 0.012081212 0.088851616
0.022758171 -0.1066627 -0.031315953 -0.033771854 0.03668175 -0.06411765 0.017178012 0.0014152981
0.03212059 0.00765237 -0.17838815 0.15404557 -0.089205295 -0.09064589 -0.08979389 -0.0125054605
0.065488 0.05778418 0.116701335 0.01749131 -0.08958324 0.03721324 -0.04113955 -0.16075581
-0.045055512 -0.065777004 -0.119841285 0.03777255 -0.071205586 -0.01012838 -0.08264035 0.018890182
-0.16192374 0.018901613 0.08943833 0.13933577 0.2621892 0.019912226 0.056563925 -0.07132169
-0.021956498 0.09500249 0.19802943 -0.019770892 -0.16058038 -0.075301714 0.2517643 -0.017978698
0.111446306 -0.11667006 -0.06687407 -0.025359154 0.06573499 -0.022499826 0.07554854 0.025484063
0.10562174 -0.1710942 -0.16420388 -0.03234097 -0.13787214 0.0965564 0.2093368 -0.051922772
0.0861904 0.23488638 -0.080132365 0.24720934 0.042961527 -0.0714621 -0.11196874 -0.10278114
-0.049913455 0.037988495 -0.07583638 0.010511404 -0.07508267 -0.01577838 -0.023049796 -0.1937798
0.11463165 0.07334476 0.093950465 0.09653408 -0.18134683 0.0049135196 -0.083808966 -0.03983996
0.06546636 -0.08468276 0.3078639 0.22127347 -0.21953103 -0.05623294 -0.059902508 0.0048060096
-0.108035535 -0.031604562 0.027832378 0.117333226 0.00970589 0.15213092 -0.010808102 -0.10890641
-0.031896386 0.16084063 -0.12880681 0.16508177 -0.11090268 -0.013631961 0.12979825 -0.15946972
0.15576288 0.06830744 -0.046017256 0.12675473 0.052030765 -0.14790018 -0.13479234 0.09348091
-0.058647484 -0.10136411 -0.0030073235 0.068335585 -0.14220177 -0.117886476 -0.056454837 9.230664e-05
0.049648985 0.040156815 -0.050317883 0.109037295 0.0241197 -0.10137328 0.008012878 -0.017549625
-0.09608298 -0.10739291 -0.14849435 -0.04475752 0.11265705 -0.034904763 -0.013046773 0.09558211
0.0022999318 0.10115967 0.029164752 0.023536656 0.067403264 0.112117216 -0.16219002 -0.011385922
-0.030439662 -0.13330425 -0.13391642 0.14015797 0.05996008 -0.004976199 -0.046895932 -0.18534459
-0.30289888 0.18802272 0.24575616 -0.12589946 0.11147193 0.10481839 -0.031423494 -0.049292654
0.049738128 -0.13799411 0.033003207 -0.071998455 0.16850859 -0.06680635 -0.062682986 0.027378466
-0.031063711 -0.12616237 -0.1336142 -0.05771984 0.03427926 -0.04001776 -0.072947785 0.085731715
0.09916983 -0.23654495 -0.18694556 0.08868467 -0.10454391 0.26675394 0.14646041 0.11289284
0.015914306 -0.007752346 0.052947864 0.18124376 -0.03716792 -0.15182543 -0.04389832 0.03221307
-0.01342935 0.07013558 -0.104010284 0.091823876 -0.0708925 -0.055152707 0.26968214 0.25770763
0.0714225 0.05252092 -0.006790489 -0.027115291 0.013612224 0.06590975 0.21967714 0.04816362
0.096039586 -0.008846704 0.10382197 0.16757381 0.17782825 0.002879306 -0.18157604 0.07199497
0.1396305 -0.09926813 0.17471966 -0.017480703 0.087319076 0.017709875 -0.16506553 -0.21222506

gru.weight_hh_l1 f4 [384, 128]
00000000: 39f2 8fbd 110c ca3c b3d6 2cbd c892 8b3d
00000010: 675f 22be 47e8 113e e00e 6cbd 0343 803b
00000020: 80b8 023d ae78 7dbd 6db5 31bc ad1a 6c3d
00000030: 93c6 1e3d 94e2 9abd ebad 463d 0d38 42bc
00000040: f38c 003e 96c1 c33d 8dfd 0a3e a061 b5bc
00000050: dbb8 97bd e28c 69bd 8fdd 02bd 6867 92bd
00000060: 7c3b e9bc 0062 323d 94f7 e03d d67d feb9
00000070: 3c0f 19bd 7fed 0b3e 587c 2cbb 4e94 b93c
00000080: 92a2 a83d 32de b03d deae 0d3e ad10 c4bd
00000090: 4e78 00bd ac7e 933d 407e f3bc 5739 bfbd
000000a0: 3f64 6abd 27df 90bd 0ab4 473d 4fc1 863d
000000b0: f5b7 9b3d a2e4 afbd 9669 51be e505 25be
000000c0: 6617 4fbb 9cfc 5e3d 3036 463d 5e84 7a3d
000000d0: 8895 653d dc9b fa3d 046d b63d c07a c4bd
000000e0: 95c5 52bd eb9e 4d3d cee6 1fbd 5cb2 fa3d
000000f0: 4f63 1b3e 08b3 30bc 947c d3bd 18ba d53c
00000100: 5d84 56bb fcea 5d3d 5d3f 813d 84bb 933d
00000110: 2f4e 1b3e d0b6 4fbc b406 adbc 9fb8 e4bd
00000120: 7c8e ef3d 7996 0a3e a51d 843d 696a 06bd
00000130: a136 9fbd bf68 84be 410f be3d e086 64bd
00000140: c759 a4bd 829c 18be 0b74 b9bd 69c7 1a3d
00000150: a7fe 483e 84e3 abbc 939c d73d 3c48 20be
00000160: 4037 f3bd 72e8 83bd 4d66 abbc fc32 2ebc
00000170: 3212 14be a180 a63c 9325 353d d10d a1bc
00000180: 0c51 f6bd eb23 81bd 8ae7 fd3c 0890 453d
00000190: b28b bfbd 97be 30be d7c0 23bc 397c f6bd
000001a0: 04fe 3ebe 40f9 6f3d 3ee0 c43d 543d 49ba
000001b0: 50ac 353e eb86 ea3c d2d6 fcbc 658c 6cbd
000001c0: 623a 203e 7de0 853e f506 04be 8ced 1fbc
000001d0: 655d 5c3c de0e a1bd 8de3 0bbd 6502 e33d
000001e0: 9797 ce3c a08b d83d 6543 7ebd ba9a d4bc
000001f0: 7d83 8d3d e6d5 e2bd cc9c dbbd 25c8 473a
00000200: d053 f53b 3a41 bbbb 8b92 1e3d 27f7 073d
00000210: 382f 233d 2156 bb3d b0ba c6bd e3a9 e63d
00000220: fcb0 933d fab5 0d3c 1ea3 f2bc a7a1 bdbc
00000230: e327 c53d 97fc 4abd 20b4 223e b547 1c3d
00000240: b425 423d 82d6 c73b edb0 0a3d 9fa5 f2bd
00000250: bc41 a9bd 5432 09bd 154f a2bd e4a4 53bc
00000260: fa6e 7abd 180b 923d fa9c ba3d 58de 363a
00000270: 240f a9ba 8fe0 933c ec40 98bd 34f5 8c3d
00000280: 00b7 05be d4ca 8c3d e397 8f3d 1cc7 78bd
00000290: 1db8 debd d85a 4a3d 5232 b0bd 080d adbc
000002a0: 0ffd 01bd 426b c7bc 3ff4 ee3c db91 af3d
000002b0: 700e 743d dc0c 073e 09f0 bfbd c58b 16be
000002c0: 1954 29be 1ff0 e8bd 3a1c c8bd 3836 3bbd
000002d0: 0dc8 533e b71f c0bd 057e 1f3e f6cc 723c
000002e0: 9601 803c e35a f8bd cf96 a83b a99d 913c
000002f0: 2031 c83d 8291 3bbe a0db 64bd d142 ac3d
00000300: a9b8 893d 262a 813d 83e5 a23d dec9 063d
00000310: 1d4b 203e 40fa aabc afd6 ca3d a319 a8bd
00000320: 3492 583b cc36 d73d 32f8 7d3d 85e8 a43d
00000330: d235 103d 4c8d e5bd 2a67 7b3d 108e 70bd
00000340: abd1 82bd 967a 20be d703 23bd c553 0bbd
00000350: ad83 0b3e b648 4fbd ffd7 a8bd 01f1 30be
00000360: f2f1 513d c6ae 33be faf0 943d 9ee7 b23c
00000370: 6133 c6bd 03a9 cb3c 692f ff3c 48fa 80bd
00000380: 6ef5 16bc 4f35 b5bc 7a84 97bd 1378 0e3e
00000390: 5a3b 493b 463c 17be 6a2d 8a3d afe0 52bc
000003a0: 62ed 2b3d 6ecf 12bd 174c dcbd 8a46 39bc
000003b0: 5fa8 8b3e 0d4d e23d 6dbc 873d 33b2 26bd
000003c0: 0111 f23d dd8f 113e 03eb 51be 15ab 973b
000003d0: 3e40 fbbc da46 33bd 5748 9e3d b045 243e
000003e0: ceaa 7ebd 7b10 8c3a 5921 e2bc 6600 943d
000003f0: 36b2 6a3a dd0c 9fbd 08af 06be 04a0 d3bd
-0.07028622 0.024663957 -0.04219694 0.06815106 -0.15856706 0.14248763 -0.057631373 0.0039142384
0.031914234 -0.061882667 -0.010846478 0.057642628 0.038763594 -0.075627476 0.048505705 -0.011854184
0.12553768 0.09558408 0.13573284 -0.022141278 -0.07408305 -0.057019122 -0.031949576 -0.071486294
-0.028470747 0.04355049 0.10984722 -0.0004854041 -0.037368044 0.13664816 -0.0026319232 0.022653725
0.08234133 0.086361304 0.13836238 -0.09573493 -0.03136473 0.07201895 -0.029723287 -0.093371086
-0.05722451 -0.07073813 0.048755683 0.065798394 0.076034464 -0.0858853 -0.20450434 -0.1611553
-0.003159964 0.054440126 0.04839152 0.06116139 0.056050807 0.12236759 0.08907512 -0.09593725
-0.05145796 0.050200384 -0.039038472 0.122410506 0.15174602 -0.010784872 -0.10326496 0.026089713
-0.0032732703 0.054179177 0.06310914 0.072135 0.15166543 -0.012677863 -0.02112136 -0.11168026
0.116970986 0.13533963 0.06450967 -0.032816324 -0.077740915 -0.25861165 0.09280253 -0.05579269
-0.08024936 -0.14903453 -0.090553366 0.03778783 0.19628392 -0.020982511 0.10527911 -0.15652555
-0.118757725 -0.0644082 -0.020922804 -0.010632273 -0.14460066 0.020325007 0.044225287 -0.019659908
-0.12027177 -0.06305679 0.030994195 0.048233062 -0.09352817 -0.17260204 -0.009994707 -0.12035412
-0.18651587 0.058587313 0.09613083 -0.000767668 0.17741513 0.028628787 -0.030864153 -0.05775108
0.15647271 0.26147833 -0.12893279 -0.009761225 0.013450001 -0.07864164 -0.034152556 0.11084441
0.025218768 0.10573506 -0.06207599 -0.025952686 0.06909845 -0.11075954 -0.10723266 0.00076210714
0.007486798 -0.0057145627 0.038713973 0.033194687 0.039839953 0.09147287 -0.097035766 0.11262872
0.072114915 0.008649344 -0.029618796 -0.02314837 0.096267484 -0.049557295 0.15889025 0.038154323
0.047399238 0.0060985694 0.033860136 -0.11847996 -0.08264491 -0.033495262 -0.0792524 -0.012917731
-0.06114099 0.07131022 0.09111972 0.0006975881 -0.0012898189 0.018051414 -0.07434258 0.06882706
-0.1305809 0.06874624 0.07011392 -0.06073676 -0.108749606 0.04940304 -0.08603348 -0.021124378
-0.031735476 -0.024343137 0.0291692 0.085727416 0.05958408 0.13188499 -0.09371955 -0.14701755
-0.16535987 -0.113739245 -0.09771009 -0.045706004 0.20681782 -0.09381049 0.15575416 0.014819374
0.015625756 -0.1212671 0.005144931 0.017775374 0.09774995 -0.18317226 -0.055873513 0.08411182
0.06724674 0.06306867 0.07953932 0.03290736 0.15653653 -0.020871282 0.09904229 -0.08208015
0.0033046128 0.105084985 0.062004276 0.08052162 0.035207577 -0.11208591 0.06137768 -0.05872923
-0.06387647 -0.15671763 -0.039798584 -0.034015436 0.13624449 -0.050606452 -0.08244323 -0.17279436
0.051256128 -0.1754714 0.07272525 0.02183896 -0.096777685 0.024860865 0.031150537 -0.06297737
-0.009213788 -0.022120146 -0.07398315 0.13912992 0.0030705542 -0.14769086 0.06746943 -0.012870952
0.041974433 -0.03584235 -0.107567005 -0.011308322 0.27276894 0.110498525 0.06627736 -0.040697288
0.118196495 0.14215036 -0.20499806 0.004628549 -0.030670281 -0.04376874 0.077286415 0.16042209
-0.06217461 0.0010686064 -0.027603792 0.072266385 0.0008952947 -0.07766125 -0.13152707 -0.10333255

gru.bias_ih_l1 f4 [384]
00000000: c850 1f3e a360 f43d 6554 0c3d 06cf 053e
00000010: bf63 c23c 7614 343e aa7f fe3d d648 053e
00000020: 1a76 953d e45c 8d3c 576b 4abc 9172 123e
00000030: 232b 953c 6fe9 8f3d debe 683d 97a8 ff3d
00000040: a807 e03d 8d84 37bd 922f 00bd 4927 b03d
00000050: 9ffe 4a3e fe8f d43d b9b2 2a3e ef74 a53a
00000060: 8d4f d93d 3616 06be b0f0 ee3d 3c15 5d3d
00000070: fd37 61bd 8a8b 823d 316b 683d 1acb 913d
00000080: 860c a43d d8c6 ea3c 1ff1 173d 9c8b c63d
00000090: b8bc 0b3e d4b2 0bbd 8ea3 4c3e 0724 b53c
000000a0: 6590 5c3d 03c7 49bc 2e10 8b3d f2a5 d73d
000000b0: 8cc2 813d 7e93 963d 0d19 b63c 10d3 ce3d
000000c0: 76d9 063e 307f aa3d dae3 c33c 5c09 813d
000000d0: b7e1 c93d deb8 463c 8fd4 4f3e c0e0 853d
000000e0: 0e38 7c3d 0d3d 2c3d d590 4d3d a8a6 893d
000000f0: 852c 22bd f988 9e3d bf81 c6bd de4a ebbd
00000100: ac83 0cbc 97dc 9dbd 7b5d 3f3d a918 dabc
00000110: 81e0 ce3d 39e2 283c f80e 173e 28fd 313c
00000120: dd0c 333e 3f20 573d 2aeb 06bd 107f ce3d
00000130: 978c 093d 78b3 ee3d 4f0c df3d 4028 513d
00000140: 49bf 913d d7ca 6d3a f4b5 03be 0c7c 753e
00000150: b8f4 dc3d eb0e 133d 0ed5 cb3d 6c0a 82bc
00000160: 2d84 4ebd ca88 1f3e e485 793d feae 19bd
00000170: b329 b93d 3fdb 193e 4a61 ef3d 118e b23d
00000180: 0bb0 e23c baa9 c43d 6711 493d 4b94 473d
00000190: a6e5 193e a40b 093b b4fa 0d3e 6364 1b3d
000001a0: 3930 193e 84fe e13d b28b c139 b5cb b73c
000001b0: d295 f13c af34 aebd 61d3 d53d 3e39 e43d
000001c0: d572 d03d d186 003e bcde 1c3a d2f5 c43d
000001d0: 4c8f a83d 1d18 3f3c bfb0 98bd a311 c43d
000001e0: a838 f6bb b81c bbbb 99ab c93d 5106 5cbd
000001f0: e87a 4fbd abe7 d63d 1fe8 063e 0ce6 a23d
00000200: f28d d43d 3048 8f3d 6534 73bc 18ab b5bd
00000210: ca30 d0bd 9d76 0bbd 2f02 34bb 6d31 3c3d
00000220: 2edc 663e a341 4b3e 8c6a 093e c915 003c
00000230: bcac 1f3e c518 2e3c 1aec 2d3d e97b 2dbd
00000240: 4f58 763e 2c82 5cbd 6b0f 5f3c be0c 86bd
00000250: 6ef2 b93d 25e6 73bb bc09 d13d 1adb cb3d
00000260: 1e94 9dbb 4312 2a3d 0fec 553e 6ebb 15bc
00000270: 3bb8 e23d 9df3 e8bc dbeb 263d b9ed a6bd
00000280: e816 95bd d0d5 9a3d 8641 193e 0aee 71bc
00000290: 99a7 143e ff57 1a3e 51d9 b93d 4f7e 013d
000002a0: c6dd 243e 242f 1ebd 5265 bbbb abca 89bd
000002b0: b195 c93d d891 5fbc b8b3 03bd 86a6 b1bc
000002c0: ce39 b43d 8395 6e3d 5c43 153d d11c c03d
000002d0: 767b 293e f8cc 35bd d702 ff3d fbe0 803e
000002e0: ef92 a63d 6468 fbbc d924 fd3d 899b 663d
000002f0: 718c fd3c a329 863c 5b8c c0b9 ef43 cc3d
00000300: 8b7e ed3c 9334 033e a27f a83d eabe b23d
00000310: b400 833e 70dd 263d 134f 0d3e 43b3 10bd
00000320: a0c2 d63d 44f3 16bd 8a53 973c 1208 89bb
00000330: 83ff 98bd 9eff ac3c 3d6b 40bc aeec 4a3d
00000340: b131 7cbc 9296 ed3d 1ca8 15bd 63b0 313c
00000350: 0246 793b 7322 933d 644d a4bd 7c2b 0a3e
00000360: 6cef 1dbd 92c3 5a3e 1daf 7c3e 1343 b03d
00000370: d182 163b 133c 1bbc 0eaf 673e 892e c73d
00000380: 4744 d83d 65b3 743b 6d57 883c afc0 da3d
00000390: 66d3 7c3d 1966 963b 94ce 2f3e 3023 d13d
000003a0: 2b15 1e3e 59e7 a63a 838f dc3d 905d d43b
000003b0: fd01 303e e99b da3c a93c ac3d 4477 343c
000003c0: bdcf d93d 4c3a b23d 63ed 74bc 2a8c ce3d
000003d0: b887 ee3d ea59 0e3d 5281 b93d e495 6d3e
000003e0: 6ce3 523c 3e26 133d 22af a2bb 8830 39bd
000003f0: 6cac b4bd d153 ac3d 21c1 6f3d 0edb 2d3d
0.1555816 0.119324945 0.034260172 0.13067254 0.023729203 0.1758593 0.12426694 0.13016066
0.07297917 0.017256208 -0.012354693 0.14301516 0.018209046 0.07026946 0.05682265 0.12483328
0.1093896 -0.044804145 -0.031295367 0.08601243 0.19823693 0.10379027 0.1666974 0.001262335
0.10610876 -0.1309441 0.11667001 0.05397533 -0.054985035 0.06374271 0.05674285 0.07118817
0.08010201 0.02865927 0.037095185 0.09694597 0.13646209 -0.03410609 0.19984266 0.022111906
0.053848643 -0.0123155145 0.067901954 0.105296984 0.06335935 0.07352351 0.022228742 0.10098851
0.13168892 0.0832504 0.023912359 0.06300613 0.09857505 0.012129037 0.20295928 0.06537008
0.061576895 0.04205041 0.05018695 0.0672124 -0.03959324 0.07740969 -0.09692716 -0.11488889
-0.008576315 -0.0770809 0.04672001 -0.026623087 0.101014145 0.010307842 0.14751804 0.01086358
0.17485376 0.052520987 -0.032939114 0.10082829 0.033581343 0.11655325 0.108910196 0.051063776
0.07116563 0.0009071058 -0.12862378 0.23973101 0.10788864 0.0359029 0.09952746 -0.01587411
-0.05041902 0.15579525 0.060918704 -0.0375204 0.090411566 0.15025042 0.11688478 0.08718503
0.027671834 0.09602685 0.04908886 0.048725408 0.1502901 0.002091148 0.13865167 0.037937533
0.14959802 0.11034873 0.0003691591 0.022436002 0.029490385 -0.08506142 0.10440708 0.111437306
0.101781525 0.12551428 0.0005984118 0.09617199 0.08230457 0.011663464 -0.07455587 0.095736764
-0.007514078 -0.0057102107 0.09847183 -0.05371696 -0.050654322 0.10493406 0.13174485 0.07954034
0.103786364 0.069961905 -0.014844035 -0.08870524 -0.10165556 -0.034048665 -0.0027467122 0.045945574
0.2254493 0.19849257 0.1341955 0.007817694 0.15593237 0.010626023 0.042461492 -0.042354498
0.24057125 -0.05383508 0.013614516 -0.06545399 0.09079443 -0.0037216034 0.10206935 0.099539
-0.0048089167 0.041521322 0.2089083 -0.009138925 0.110702954 -0.028436476 0.040752273 -0.08150811
-0.0727976 0.07560313 0.14966401 -0.014766226 0.14517058 0.1507263 0.09074653 0.031614598
0.16100225 -0.038619176 -0.0057188654 -0.06728109 0.098430045 -0.013645612 -0.032153815 -0.02168585
0.08800088 0.058248054 0.036441192 0.09380496 0.16551003 -0.044384927 0.124517135 0.25171646
0.08133494 -0.030689426 0.12360544 0.056300674 0.030950757 0.016377276 -0.00036725667 0.09973895
0.028991004 0.12813024 0.08227469 0.0872782 0.25586474 0.040738523 0.13799696 -0.035327207
0.104863405 -0.03685309 0.018472452 -0.0041818703 -0.0747061 0.021117982 -0.011744318 0.04954212
-0.015392707 0.11600985 -0.036537275 0.0108452765 0.0038036113 0.07184305 -0.080225736 0.1349315
-0.03855841 0.21363667 0.24676175 0.086065434 0.0022966156 -0.009474772 0.22625372 0.09725673
0.10559898 0.0037338373 0.01664325 0.10681283 0.061725043 0.0045898077 0.17168647 0.102117896
0.15437762 0.0012733742 0.1076956 0.00648088 0.17188258 0.026685672 0.084100075 0.011014763
0.10635326 0.087025255 -0.0149491755 0.10085328 0.1164698 0.034753717 0.09057869 0.2320171
0.012871604 0.035925142 -0.004964725 -0.0452123 -0.08821949 0.08414424 0.05853379 0.042445235

gru.bias_hh_l1 f4 [384]
00000000: de20 c63d 053d ac3d e941 a73a 8657 c63d
00000010: 8951 053e 650c c63d c9bc 843b 3bbe d03d
00000020: 991a 003d d9bf 023d 6f43 a43c a35b e33d
00000030: b77e 13bc e72e 983d 981f 523d e3d7 453d
00000040: 7c8c 1cbd f586 0abd 86f1 d2bb 8245 ef3d
00000050: b9fe 5c3e afe1 a63c d194 5a3d 166c 6eb9
00000060: 3d59 be3d c4a7 f0bd 4f89 033d cf46 7a3d
00000070: 7cd4 27bd bdb7 9f3a 1ad8 c63b 609e 123e
00000080: f8e7 163d 00ec 7b3d 5987 35bd f08a 353d
00000090: ead9 753c ba10 093d 1f4b 8d3d b055 e33d
000000a0: 243f 81bc 38f2 e43d 820f 0c3e 3435 823c
000000b0: 0fd8 b63b acd0 f23d f8fd 56bd 7f06 e23d
000000c0: cf93 493e 5a72 ce3c e9f6 073e e794 ac3d
000000d0: a09c 2e3e 963a 9d3d a79d 303e d0e5 f63d
000000e0: 1675 643c 5e97 0bbb a62d de3d 03ec 3d3d
000000f0: 6483 02bd d9d1 213d 25ee 83bd d312 653d
00000100: 7efa 673b bed9 073d 228b 01ba 45d9 0b3d
00000110: aeb6 143e 9542 fa3d f6e3 b23d 6988 1f3e
00000120: 0416 5e3d 9828 a93d db02 84bd c6bd 803d
00000130: 6930 743d 93f5 47bd 8855 2c3e 3d52 b63d
00000140: f8c3 393d 66d6 4ebd 8c65 57bd 22ba fd3d
00000150: 73f4 203d b208 27bd 7d28 363e bca7 a6bd
00000160: 80e0 c9bd 4615 a03d 7d67 7c3d b736 4bbd
00000170: 1c8f dd3d fe50 223e c73f 823d fbca 7e3c
00000180: b5ee 133e 29fc c13d 7fda 29bd a7a4 ed3d
00000190: 1d0c e93c 35e3 0f3d b210 f53d 17a0 44bd
000001a0: 20ec c03d 8e46 f23d 6337 923c c92b d63d
000001b0: c00b 443d b8b3 6dbd 1db1 103e 5bdd a63d
000001c0: 1cc3 bf3d f177 123e d8f0 5a3a f518 95bc
000001d0: 4054 143d 799c f63d a8d5 13bb cb98 653b
000001e0: 3c00 293e be22 2a3d 2f03 183e fb55 94bd
000001f0: 3e5e d13d 9c26 703d badc d03d 913c bb3d
00000200: 0344 093d dbbd 913c 0b80 043e a098 253d
00000210: c6da a0bd 1c3b 29bc 7666 1abd 8490 2f3c
00000220: 2eb9 3e3e 796a 823d f6c3 3d3c 94fe 393d
00000230: 826d 893d fda2 2d3e bd4f d43d a046 6dbd
00000240: 0e25 b83d 03ed ac3b 30a2 ec3c 1d74 96bd
00000250: 3d1d 76bd f44e 0f3e 6f77 1a3e 9edd aa3b
00000260: 58ca cb3d e2e5 a1bd 4a48 0b3e 50b1 4fbd
00000270: 82d0 b33d e5fa 0fbd 5427 acbc c36d 623d
00000280: 3a4a 623d 05e0 aebc 9654 193d 3a19 bebb
00000290: 9d58 243e 7c63 ea3d fee9 143d 252e c3bd
000002a0: bc56 1b3e aa03 79bc 82cd 163e c40f 523d
000002b0: 99ae 183d 5b08 e93d 8b64 2bbd 3177 4f3d
000002c0: 2c08 923d 6f2b 343d 9a4d 4139 cb6a f23d
000002d0: 7797 39bb 3832 0fbb 3042 1b3e 78c6 b83e
000002e0: ab54 9d3d 2702 073d 6672 a43b a2de 8b3d
000002f0: 7244 993c 4da3 003c 4577 a13c da19 7b3d
00000300: 9762 a63d 1bc9 4c3d 9e98 3f3d 8676 c43c
00000310: ac5d d83d 2f0f 103e 6c4f 123e 3088 313d
00000320: 1783 833d e8d8 0dbb 503b 0e3d 5a2d 83bc
00000330: 6aa0 01bd a9b6 d53d 2fec 1bbc 711a 0a3d
00000340: a335 d5bd 24fb ef3d d5f0 58bb 0773 073b
00000350: 2e04 cf3c 793e 2f3d 2c76 183c 8b7d 4d3e
00000360: f4c3 c9bc ebd2 8f3d eab2 5b3e 34e4 4f3d
00000370: f2a7 0dbd c8b9 2c3d 459a a53e 57e8 75bd
00000380: 1a3c 1b3e d4b9 b03d 85dd d33d 176a 123d
00000390: 2fa5 ae3d 2ea7 fa3d f74e 063e ffa2 4a3e
000003a0: cec2 4d3e 1500 983d 1476 2b3e 00f6 a83b
000003b0: ab07 b43d 84d4 0cbd 6e2a 5e3d 9298 ac3d
000003c0: 78e7 843d c87d ab3d ad8d 36bd d0a6 82bb
000003d0: e0f7 e43d d4e5 e7bc 0b11 e93d 94fc aa3d
000003e0: 5fb4 d83d 82ff 353e 0aca d63d 215a fe3d
000003f0: 657c a3bd e329 c83d 484b 743d 45af 523d
0.09674238 0.08410076 0.0012760732 0.096846625 0.13019384 0.09670333 0.0040508253 0.101925336
0.031275366 0.03192124 0.020051686 0.11101463 -0.009002379 0.07430821 0.05129966 0.04830159
-0.038219914 -0.03382011 -0.0064374832 0.116831794 0.21581544 0.020371286 0.05336458 -0.00022737714
0.092943646 -0.11750749 0.03211337 0.061102685 -0.040974125 0.0012185496 0.006068242 0.14318228
0.036842316 0.061504364 -0.04431853 0.044321954 0.015005568 0.033463217 0.06899094 0.11100328
-0.015777178 0.11179012 0.13677791 0.01589451 0.0055799554 0.11856207 -0.052488297 0.11036395
0.19685291 0.025201011 0.13277782 0.08426838 0.17051935 0.0767719 0.1724764 0.12055552
0.013943931 -0.0021299939 0.108485505 0.046367656 -0.031863585 0.039506767 -0.06441907 0.055926155
0.0035397108 0.03316664 -0.0004941692 0.03414275 0.14522812 0.12219731 0.08734886 0.1557938
0.054220214 0.08259696 -0.06445857 0.062861964 0.05961648 -0.048818182 0.16829503 0.089024045
0.045352906 -0.050497435 -0.052587077 0.12389018 0.039295625 -0.040779777 0.17788883 -0.081374615
-0.09857273 0.078165576 0.06162213 -0.049612727 0.108183116 0.15851209 0.06359821 0.015551324
0.14446528 0.09471924 -0.04146814 0.116036706 0.028448159 0.03512879 0.11966075 -0.048004236
0.09420037 0.118298635 0.017848676 0.1045757 0.04786277 -0.05803272 0.14130063 0.08147689
0.09363386 0.14303567 0.00083519286 -0.018200377 0.03621316 0.120415635 -0.002255777 0.0035033699
0.16503996 0.04153704 0.14844964 -0.07242962 0.102230534 0.05863057 0.1019835 0.091424115
0.033512127 0.017790725 0.1293947 0.040428758 -0.07854228 -0.010329034 -0.03769537 0.010715608
0.18625328 0.06367964 0.011582365 0.0454088 0.0671034 0.16956706 0.10366771 -0.05792868
0.089914426 0.0052772774 0.02888593 -0.073463656 -0.060086478 0.13994962 0.15084623 0.005214407
0.099507034 -0.07905175 0.13601795 -0.050706208 0.08780004 -0.03515138 -0.021014847 0.05528046
0.05524657 -0.021347055 0.037434183 -0.005801347 0.16049428 0.114447564 0.036355965 -0.09530286
0.15169805 -0.0151986275 0.14726833 0.051284567 0.037275884 0.11378547 -0.041843932 0.05065078
0.07130465 0.043986734 0.00018434823 0.118367754 -0.002831904 -0.002185 0.15161967 0.3608892
0.07682165 0.032961037 0.00501852 0.06829573 0.018709395 0.007851434 0.019710192 0.06130395
0.08124273 0.049996477 0.046776406 0.023982298 0.105647415 0.14068292 0.1428811 0.04334277
0.06421488 -0.0021644179 0.034724534 -0.016012836 -0.031647123 0.1043523 -0.00951676 0.033716623
-0.10410621 0.11717823 -0.0033102531 0.0020667927 0.025270548 0.042784188 0.009305518 0.20067422
-0.02462957 0.07022651 0.21454969 0.05075474 -0.034583993 0.042169362 0.3234426 -0.06003603
0.15159646 0.08629194 0.10344986 0.035745706 0.085276 0.12238918 0.1311606 0.1978874
0.20093843 0.07421891 0.16744262 0.0051562786 0.08790525 -0.03438236 0.054239683 0.08427538
0.06489462 0.083736 -0.044568706 -0.0039871708 0.11180091 -0.028307833 0.11380204 0.08348957
0.10581278 0.1777325 0.10487755 0.124195345 -0.07982711 0.09773614 0.059642106 0.05143668
